…
-[2023-07-20 11:09:11][interaction_serial_evaluator.py:303][INFO] [DI-engine serial pipeline] Current episode_return: 200.0000 is greater than stop_value: 195, so your RL agent is converged, you can refer to 'log/evaluator/evaluator_logger.txt' for details.
diff --git a/Cartpole/DQN-BC/cartpole_bc_seed0/log/learner/learner_logger.txt b/Cartpole/DQN-BC/cartpole_bc_seed0/log/learner/learner_logger.txt
deleted file mode 100644
index c983563..0000000
--- a/Cartpole/DQN-BC/cartpole_bc_seed0/log/learner/learner_logger.txt
+++ /dev/null
@@ -1,66 +0,0 @@
-[2023-07-20 11:08:40][base_learner.py:338][INFO] [RANK0]: DI-engine DRL Policy
-DiscreteBC(
-  (encoder): FCEncoder(
-    (act): ReLU()
-    (init): Linear(in_features=4, out_features=100, bias=True)
-    (main): Sequential(
-      (0): Linear(in_features=100, out_features=2, bias=True)
-      (1): ReLU()
-      (2): Linear(in_features=2, out_features=100, bias=True)
-      (3): ReLU()
-    )
-  )
-  (head): DuelingHead(
-    (A): Sequential(
-      (0): Sequential(
-        (0): Linear(in_features=100, out_features=100, bias=True)
-        (1): ReLU()
-      )
-      (1): Sequential(
-        (0): Linear(in_features=100, out_features=2, bias=True)
-      )
-    )
-    (V): Sequential(
-      (0): Sequential(
-        (0): Linear(in_features=100, out_features=100, bias=True)
-        (1): ReLU()
-      )
-      (1): Sequential(
-        (0): Linear(in_features=100, out_features=1, bias=True)
-      )
-    )
-  )
-)
-[2023-07-20 11:08:45][base_learner.py:338][INFO] [RANK0]: learner save ckpt in ./cartpole_bc_seed0/ckpt\ckpt_best.pth.tar
-[2023-07-20 11:08:45][base_learner.py:338][INFO] [RANK0]: === Training Iteration 0 Result ===
-[2023-07-20 11:08:45][learner_hook.py:224][INFO] 
-+-------+------------+----------------+------------------+-------------------+
…
+-[2023-07-20 11:09:11][interaction_serial_evaluator.py:303][INFO] [DI-engine serial pipeline] Current episode_return: 200.0000 is greater than stop_value: 195, so your RL agent is converged, you can refer to 'log/evaluator/evaluator_logger.txt' for details.
+diff --git a/Cartpole/DQN-BC/cartpole_dqn_seed0/log/learner/learner_logger.txt b/Cartpole/DQN-BC/cartpole_dqn_seed0/log/learner/learner_logger.txt
+deleted file mode 100644
+index b7dc395..0000000
+--- a/Cartpole/DQN-BC/cartpole_dqn_seed0/log/learner/learner_logger.txt
++++ /dev/null
+@@ -1,172 +0,0 @@
+-[2023-07-20 11:07:52][base_learner.py:338][INFO] [RANK0]: DI-engine DRL Policy
+-DQN(
+-  (encoder): FCEncoder(
+-    (act): ReLU()
+-    (init): Linear(in_features=4, out_features=128, bias=True)
+-    (main): Sequential(
+-      (0): Linear(in_features=128, out_features=128, bias=True)
+-      (1): ReLU()
+-      (2): Linear(in_features=128, out_features=64, bias=True)
+-      (3): ReLU()
+-    )
+-  )
+-  (head): DuelingHead(
+-    (A): Sequential(
+-      (0): Sequential(
+-        (0): Linear(in_features=64, out_features=64, bias=True)
+-        (1): ReLU()
+-      )
+-      (1): Sequential(
+-        (0): Linear(in_features=64, out_features=2, bias=True)
+-      )
+-    )
+-    (V): Sequential(
+-      (0): Sequential(
+-        (0): Linear(in_features=64, out_features=64, bias=True)
+-        (1): ReLU()
+-      )
+-      (1): Sequential(
+-        (0): Linear(in_features=64, out_features=1, bias=True)
+-      )
+-    )
+-  )
+-)
+-[2023-07-20 11:07:52][base_learner.py:338][INFO] [RANK0]: learner save ckpt in ./cartpole_dqn_seed0/ckpt\ckpt_best.pth.tar
+-[2023-07-20 11:07:53][base_learner.py:338][INFO] [RANK0]: === Training Iteration 0 Result ===
+-[2023-07-20 11:07:53][learner_hook.py:224][INFO] 
+-+-------+------------+----------------+-------------+--------------------+
…
