[2023-07-20 14:17:29][base_learner.py:338][INFO] [RANK0]: DI-engine DRL Policy
DQN(
  (encoder): FCEncoder(
    (act): ReLU()
    (init): Linear(in_features=4, out_features=128, bias=True)
    (main): Sequential(
      (0): Linear(in_features=128, out_features=128, bias=True)
      (1): ReLU()
      (2): Linear(in_features=128, out_features=64, bias=True)
      (3): ReLU()
    )
  )
  (head): DuelingHead(
    (A): Sequential(
      (0): Sequential(
        (0): Linear(in_features=64, out_features=64, bias=True)
        (1): ReLU()
      )
      (1): Sequential(
        (0): Linear(in_features=64, out_features=2, bias=True)
      )
    )
    (V): Sequential(
      (0): Sequential(
        (0): Linear(in_features=64, out_features=64, bias=True)
        (1): ReLU()
      )
      (1): Sequential(
        (0): Linear(in_features=64, out_features=1, bias=True)
      )
    )
  )
)
[2023-07-20 14:17:29][base_learner.py:338][INFO] [RANK0]: learner save ckpt in ./cartpole_dqn_seed0/ckpt\ckpt_best.pth.tar
[2023-07-20 14:17:29][base_learner.py:338][INFO] [RANK0]: === Training Iteration 0 Result ===
[2023-07-20 14:17:29][learner_hook.py:224][INFO] 
+-------+------------+----------------+-------------+--------------------+
…
| Value | 0.001000   | 0.350869       | 5.327428    | 4.490110           |
+-------+------------+----------------+-------------+--------------------+


[2023-07-20 14:17:35][base_learner.py:338][INFO] [RANK0]: learner save ckpt in ./cartpole_dqn_seed0/ckpt\ckpt_best.pth.tar
[2023-07-20 14:17:36][base_learner.py:338][INFO] [RANK0]: learner save ckpt in ./cartpole_dqn_seed0/ckpt\ckpt_best.pth.tar
[2023-07-20 14:17:36][base_learner.py:338][INFO] [RANK0]: learner save ckpt in ./cartpole_dqn_seed0/ckpt\iteration_680.pth.tar
[2023-07-20 14:17:56][base_learner.py:338][INFO] [RANK0]: DI-engine DRL Policy
DiscreteBC(
  (encoder): FCEncoder(
    (act): ReLU()
    (init): Linear(in_features=4, out_features=100, bias=True)
    (main): Sequential(
      (0): Linear(in_features=100, out_features=2, bias=True)
      (1): ReLU()
      (2): Linear(in_features=2, out_features=100, bias=True)
      (3): ReLU()
    )
  )
  (head): DuelingHead(
    (A): Sequential(
      (0): Sequential(
        (0): Linear(in_features=100, out_features=100, bias=True)
        (1): ReLU()
      )
      (1): Sequential(
        (0): Linear(in_features=100, out_features=2, bias=True)
      )
    )
    (V): Sequential(
      (0): Sequential(
        (0): Linear(in_features=100, out_features=100, bias=True)
        (1): ReLU()
      )
      (1): Sequential(
        (0): Linear(in_features=100, out_features=1, bias=True)
      )
    )
  )
)
[2023-07-20 14:17:58][base_learner.py:338][INFO] [RANK0]: learner save ckpt in ./cartpole_bc_seed0/ckpt\ckpt_best.pth.tar
[2023-07-20 14:17:58][base_learner.py:338][INFO] [RANK0]: === Training Iteration 0 Result ===
[2023-07-20 14:17:58][learner_hook.py:224][INFO] 
+-------+------------+----------------+------------------+-------------------+
…
