…
--[2023-07-19 10:20:22][interaction_serial_evaluator.py:303][INFO] [DI-engine serial pipeline] Current episode_return: 200.0000 is greater than stop_value: 195, so your RL agent is converged, you can refer to 'log/evaluator/evaluator_logger.txt' for details.
-diff --git a/Cartpole/cartpole_dqn_gail_seed0/log/learner/learner_logger.txt b/Cartpole/cartpole_dqn_gail_seed0/log/learner/learner_logger.txt
-deleted file mode 100644
-index f158ff4..0000000
---- a/Cartpole/cartpole_dqn_gail_seed0/log/learner/learner_logger.txt
-+++ /dev/null
-@@ -1,62 +0,0 @@
--[2023-07-19 10:19:18][base_learner.py:338][INFO] [RANK0]: DI-engine DRL Policy
--DQN(
--  (encoder): FCEncoder(
--    (act): ReLU()
--    (init): Linear(in_features=4, out_features=128, bias=True)
--    (main): Sequential(
--      (0): Linear(in_features=128, out_features=128, bias=True)
--      (1): ReLU()
--      (2): Linear(in_features=128, out_features=64, bias=True)
--      (3): ReLU()
--    )
--  )
--  (head): DuelingHead(
--    (A): Sequential(
--      (0): Sequential(
--        (0): Linear(in_features=64, out_features=64, bias=True)
--        (1): ReLU()
--      )
--      (1): Sequential(
--        (0): Linear(in_features=64, out_features=2, bias=True)
--      )
--    )
--    (V): Sequential(
--      (0): Sequential(
--        (0): Linear(in_features=64, out_features=64, bias=True)
--        (1): ReLU()
--      )
--      (1): Sequential(
--        (0): Linear(in_features=64, out_features=1, bias=True)
--      )
--    )
--  )
--)
--[2023-07-19 10:19:20][base_learner.py:338][INFO] [RANK0]: learner save ckpt in ./cartpole_dqn_gail_seed0/ckpt\ckpt_best.pth.tar
--[2023-07-19 10:19:21][base_learner.py:338][INFO] [RANK0]: === Training Iteration 0 Result ===
--[2023-07-19 10:19:21][learner_hook.py:224][INFO] 
--+-------+------------+----------------+-------------+--------------------+
…
-[2023-07-19 21:27:04][interaction_serial_evaluator.py:303][INFO] [DI-engine serial pipeline] Current episode_return: 195.2000 is greater than stop_value: 195, so your RL agent is converged, you can refer to 'log/evaluator/evaluator_logger.txt' for details.
diff --git a/Cartpole/PPO-GAIL/cartpole_ppo_gail_seed0/log/learner/learner_logger.txt b/Cartpole/PPO-GAIL/cartpole_ppo_gail_seed0/log/learner/learner_logger.txt
deleted file mode 100644
index c8725ed..0000000
--- a/Cartpole/PPO-GAIL/cartpole_ppo_gail_seed0/log/learner/learner_logger.txt
+++ /dev/null
@@ -1,240 +0,0 @@
-[2023-07-19 21:25:37][base_learner.py:338][INFO] [RANK0]: DI-engine DRL Policy
-VAC(
-  (encoder): FCEncoder(
-    (act): ReLU()
-    (init): Linear(in_features=4, out_features=64, bias=True)
-    (main): Sequential(
-      (0): Linear(in_features=64, out_features=64, bias=True)
-      (1): ReLU()
-      (2): Linear(in_features=64, out_features=128, bias=True)
-      (3): ReLU()
-    )
-  )
-  (critic_head): RegressionHead(
-    (main): Sequential(
-      (0): Linear(in_features=128, out_features=128, bias=True)
-      (1): ReLU()
-    )
-    (last): Linear(in_features=128, out_features=1, bias=True)
-  )
-  (actor_head): DiscreteHead(
-    (Q): Sequential(
-      (0): Sequential(
-        (0): Linear(in_features=128, out_features=128, bias=True)
-        (1): ReLU()
-      )
-      (1): Sequential(
-        (0): Linear(in_features=128, out_features=2, bias=True)
-      )
-    )
-  )
-  (actor): ModuleList(
-    (0): FCEncoder(
-      (act): ReLU()
-      (init): Linear(in_features=4, out_features=64, bias=True)
-      (main): Sequential(
-        (0): Linear(in_features=64, out_features=64, bias=True)
-        (1): ReLU()
-        (2): Linear(in_features=64, out_features=128, bias=True)
-        (3): ReLU()
-      )
-    )
-    (1): DiscreteHead(
-      (Q): Sequential(
-        (0): Sequential(
-          (0): Linear(in_features=128, out_features=128, bias=True)
-          (1): ReLU()
-        )
-        (1): Sequential(
-          (0): Linear(in_features=128, out_features=2, bias=True)
-        )
-      )
-    )
-  )
-  (critic): ModuleList(
-    (0): FCEncoder(
-      (act): ReLU()
-      (init): Linear(in_features=4, out_features=64, bias=True)
-      (main): Sequential(
-        (0): Linear(in_features=64, out_features=64, bias=True)
-        (1): ReLU()
-        (2): Linear(in_features=64, out_features=128, bias=True)
-        (3): ReLU()
-      )
-    )
-    (1): RegressionHead(
-      (main): Sequential(
-        (0): Linear(in_features=128, out_features=128, bias=True)
-        (1): ReLU()
-      )
-      (last): Linear(in_features=128, out_features=1, bias=True)
-    )
-  )
-)
-[2023-07-19 21:25:43][base_learner.py:338][INFO] [RANK0]: learner save ckpt in ./cartpole_ppo_gail_seed0/ckpt\ckpt_best.pth.tar
-[2023-07-19 21:25:43][base_learner.py:338][INFO] [RANK0]: === Training Iteration 0 Result ===
-[2023-07-19 21:25:43][learner_hook.py:224][INFO] 
-+-------+------------+----------------+-----------------+----------------+
…
