[2023-07-19 20:42:26][base_learner.py:338][INFO] [RANK0]: DI-engine DRL Policy
VAC(
  (encoder): FCEncoder(
    (act): ReLU()
    (init): Linear(in_features=4, out_features=64, bias=True)
    (main): Sequential(
      (0): Linear(in_features=64, out_features=64, bias=True)
      (1): ReLU()
      (2): Linear(in_features=64, out_features=128, bias=True)
      (3): ReLU()
    )
  )
  (critic_head): RegressionHead(
    (main): Sequential(
      (0): Linear(in_features=128, out_features=128, bias=True)
      (1): ReLU()
    )
    (last): Linear(in_features=128, out_features=1, bias=True)
  )
  (actor_head): DiscreteHead(
    (Q): Sequential(
      (0): Sequential(
        (0): Linear(in_features=128, out_features=128, bias=True)
        (1): ReLU()
      )
      (1): Sequential(
        (0): Linear(in_features=128, out_features=2, bias=True)
      )
    )
  )
  (actor): ModuleList(
    (0): FCEncoder(
      (act): ReLU()
      (init): Linear(in_features=4, out_features=64, bias=True)
      (main): Sequential(
        (0): Linear(in_features=64, out_features=64, bias=True)
        (1): ReLU()
        (2): Linear(in_features=64, out_features=128, bias=True)
        (3): ReLU()
      )
    )
    (1): DiscreteHead(
      (Q): Sequential(
        (0): Sequential(
          (0): Linear(in_features=128, out_features=128, bias=True)
          (1): ReLU()
        )
        (1): Sequential(
          (0): Linear(in_features=128, out_features=2, bias=True)
        )
      )
    )
  )
  (critic): ModuleList(
    (0): FCEncoder(
      (act): ReLU()
      (init): Linear(in_features=4, out_features=64, bias=True)
      (main): Sequential(
        (0): Linear(in_features=64, out_features=64, bias=True)
        (1): ReLU()
        (2): Linear(in_features=64, out_features=128, bias=True)
        (3): ReLU()
      )
    )
    (1): RegressionHead(
      (main): Sequential(
        (0): Linear(in_features=128, out_features=128, bias=True)
        (1): ReLU()
      )
      (last): Linear(in_features=128, out_features=1, bias=True)
    )
  )
)
[2023-07-19 20:42:26][base_learner.py:338][INFO] [RANK0]: learner save ckpt in ./cartpole_ppo_offpolicy_seed0/ckpt\ckpt_best.pth.tar
[2023-07-19 20:42:26][base_learner.py:338][INFO] [RANK0]: === Training Iteration 0 Result ===
[2023-07-19 20:42:26][learner_hook.py:224][INFO] 
+-------+------------+----------------+-----------------+----------------+
…
+-------+------------------+-----------------+---------------+--------------+


[2023-07-19 20:42:32][base_learner.py:338][INFO] [RANK0]: learner save ckpt in ./cartpole_ppo_offpolicy_seed0/ckpt\ckpt_best.pth.tar
[2023-07-19 20:42:33][base_learner.py:338][INFO] [RANK0]: learner save ckpt in ./cartpole_ppo_offpolicy_seed0/ckpt\ckpt_best.pth.tar
[2023-07-19 20:42:33][base_learner.py:338][INFO] [RANK0]: learner save ckpt in ./cartpole_ppo_offpolicy_seed0/ckpt\iteration_252.pth.tar
[2023-07-19 20:42:59][base_learner.py:338][INFO] [RANK0]: DI-engine DRL Policy
DiscreteBC(
  (encoder): FCEncoder(
    (act): ReLU()
    (init): Linear(in_features=4, out_features=100, bias=True)
    (main): Sequential(
      (0): Linear(in_features=100, out_features=2, bias=True)
      (1): ReLU()
      (2): Linear(in_features=2, out_features=100, bias=True)
      (3): ReLU()
    )
  )
  (head): DuelingHead(
    (A): Sequential(
      (0): Sequential(
        (0): Linear(in_features=100, out_features=100, bias=True)
        (1): ReLU()
      )
      (1): Sequential(
        (0): Linear(in_features=100, out_features=2, bias=True)
      )
    )
    (V): Sequential(
      (0): Sequential(
        (0): Linear(in_features=100, out_features=100, bias=True)
        (1): ReLU()
      )
      (1): Sequential(
        (0): Linear(in_features=100, out_features=1, bias=True)
      )
    )
  )
)
[2023-07-19 20:43:02][base_learner.py:338][INFO] [RANK0]: learner save ckpt in ./cartpole_bc_seed0/ckpt\ckpt_best.pth.tar
[2023-07-19 20:43:02][base_learner.py:338][INFO] [RANK0]: === Training Iteration 0 Result ===
[2023-07-19 20:43:02][learner_hook.py:224][INFO] 
+-------+------------+----------------+------------------+-------------------+
…
